PrunedResnet_quant.tflite (tflite, 98496 bytes, 10 tensors)

model/dense/MatMul i1 [10, 64] scale=0.08204579 zero_point=0
00000000: 1e00 1b00 00db 0000 0000 0000 0000 0000
00000010: 00e0 0000 0000 0000 0000 0000 0000 0044
00000020: 00df 0000 2f00 0000 0000 00ec 0000 e400
00000030: de00 e32b dc00 0000 27e4 0000 0000 0000
00000040: 0000 0000 0000 0000 0000 002b 2400 0000
00000050: 0000 e000 0000 0000 0000 1b00 0000 dd00
00000060: 00e1 0000 0000 00d0 00e9 0000 0000 0000
00000070: 0000 4d00 0000 0000 0000 002f 0000 2000
00000080: 1b00 0000 eb00 00de 0030 0000 0000 e700
00000090: 0000 0000 e500 0000 0000 0052 0000 e500
000000a0: 0000 007f 0000 2d00 0023 0017 0000 e200
000000b0: 0000 e300 0000 0000 0000 0000 0000 001d
000000c0: 0000 0000 e600 e600 0000 0000 0000 0000
000000d0: 0000 0000 0000 0000 0000 de00 0000 0000
000000e0: 0000 0000 0000 0000 0000 0027 0000 0000
000000f0: 0000 0000 003a 5700 0000 0000 0000 1e00
2.4613738 0.0 2.2152364 0.0 0.0 -3.0356944 0.0 0.0
0.0 0.0 0.0 0.0 0.0 0.0 0.0 0.0
0.0 -2.6254654 0.0 0.0 0.0 0.0 0.0 0.0
0.0 0.0 0.0 0.0 0.0 0.0 0.0 5.579114
0.0 -2.7075112 0.0 0.0 3.8561523 0.0 0.0 0.0
0.0 0.0 0.0 -1.6409159 0.0 0.0 -2.2972822 0.0
-2.789557 0.0 -2.379328 3.5279691 -2.9536486 0.0 0.0 0.0
3.199786 -2.2972822 0.0 0.0 0.0 0.0 0.0 0.0
0.0 0.0 0.0 0.0 0.0 0.0 0.0 0.0
0.0 0.0 0.0 3.5279691 2.9536486 0.0 0.0 0.0
0.0 0.0 -2.6254654 0.0 0.0 0.0 0.0 0.0
0.0 0.0 2.2152364 0.0 0.0 0.0 -2.8716028 0.0
0.0 -2.5434196 0.0 0.0 0.0 0.0 0.0 -3.938198
0.0 -1.8870533 0.0 0.0 0.0 0.0 0.0 0.0
0.0 0.0 6.317526 0.0 0.0 0.0 0.0 0.0
0.0 0.0 0.0 3.8561523 0.0 0.0 2.6254654 0.0
2.2152364 0.0 0.0 0.0 -1.7229617 0.0 0.0 -2.789557
0.0 3.938198 0.0 0.0 0.0 0.0 -2.0511448 0.0
0.0 0.0 0.0 0.0 -2.2152364 0.0 0.0 0.0
0.0 0.0 0.0 6.727755 0.0 0.0 -2.2152364 0.0
0.0 0.0 0.0 10.419816 0.0 0.0 3.6920607 0.0
0.0 2.8716028 0.0 1.8870533 0.0 0.0 -2.4613738 0.0
0.0 0.0 -2.379328 0.0 0.0 0.0 0.0 0.0
0.0 0.0 0.0 0.0 0.0 0.0 0.0 2.379328
0.0 0.0 0.0 0.0 -2.1331906 0.0 -2.1331906 0.0
0.0 0.0 0.0 0.0 0.0 0.0 0.0 0.0
0.0 0.0 0.0 0.0 0.0 0.0 0.0 0.0
0.0 0.0 -2.789557 0.0 0.0 0.0 0.0 0.0
0.0 0.0 0.0 0.0 0.0 0.0 0.0 0.0
0.0 0.0 0.0 3.199786 0.0 0.0 0.0 0.0
0.0 0.0 0.0 0.0 0.0 4.758656 7.1379843 0.0
0.0 0.0 0.0 0.0 0.0 0.0 2.4613738 0.0

model/conv2d/Conv2D i1 [16, 3, 3, 3]
00000000: 0000 0000 0000 3b00 a4cc 0000 0000 0000
00000010: 0000 0000 0000 007f a600 0000 0000 0000
00000020: 0000 0000 0000 0000 0000 0000 0000 0000
00000030: 0000 0000 0000 00d1 0000 7f00 0000 0070
00000040: b300 cda3 00a0 0000 2900 0000 0000 0055
00000050: 0000 0000 ba00 0000 0000 0000 0000 7f00
00000060: 0000 0000 0000 0000 cc00 0000 bf4e 00aa
00000070: 0000 0000 0000 0000 0000 0000 0000 0000
00000080: 007f 8b00 0000 0000 0000 0081 9400 0000
00000090: 0000 00c5 0000 0000 0000 0000 4300 6700
000000a0: 7d00 00c3 5f00 0000 0000 0000 b600 0000
000000b0: e14b 4c00 0000 75a4 00a6 0070 815c 008e
000000c0: 77c7 b800 0000 003a 0000 0034 0000 00b2
000000d0: 004a 8100 0000 003d 00d2 0074 3f7f 0000
000000e0: 0000 0000 0000 00ab a900 0000 0000 9e00
000000f0: 0000 0000 0000 0000 0000 cb00 7568 7fa8
0 0 0 0 0 0 59 0
-92 -52 0 0 0 0 0 0
0 0 0 0 0 0 0 127
-90 0 0 0 0 0 0 0
0 0 0 0 0 0 0 0
0 0 0 0 0 0 0 0
0 0 0 0 0 0 0 -47
0 0 127 0 0 0 0 112
-77 0 -51 -93 0 -96 0 0
41 0 0 0 0 0 0 85
0 0 0 0 -70 0 0 0
0 0 0 0 0 0 127 0
0 0 0 0 0 0 0 0
-52 0 0 0 -65 78 0 -86
0 0 0 0 0 0 0 0
0 0 0 0 0 0 0 0
0 127 -117 0 0 0 0 0
0 0 0 -127 -108 0 0 0
0 0 0 -59 0 0 0 0
0 0 0 0 67 0 103 0
125 0 0 -61 95 0 0 0
0 0 0 0 -74 0 0 0
-31 75 76 0 0 0 117 -92
0 -90 0 112 -127 92 0 -114
119 -57 -72 0 0 0 0 58
0 0 0 52 0 0 0 -78
0 74 -127 0 0 0 0 61
0 -46 0 116 63 127 0 0
0 0 0 0 0 0 0 -85
-87 0 0 0 0 0 -98 0
0 0 0 0 0 0 0 0
0 0 -53 0 117 104 127 -88

model/conv2d_1/Conv2D i1 [16, 3, 3, 16]
00000000: 0000 0000 0000 0011 0000 0000 0000 0000
00000010: 0000 001f 0000 00d8 0000 0000 0000 0000
00000020: c200 0000 0000 0025 3300 0000 d800 0000
00000030: 0000 003c 0000 0000 e200 0000 0000 00e0
00000040: 0000 0023 b600 c400 0000 be00 c700 0048
00000050: 0000 009c 3500 0000 d000 ee00 0000 0000
00000060: 0000 0000 00e4 0000 0000 0000 0000 0000
00000070: 2f00 0000 0000 0000 0000 0000 ce00 0081
00000080: 0000 00c1 0000 0000 0000 0000 0000 0000
00000090: 0000 0000 0000 0000 0000 0000 0000 0000
000000a0: 0000 4900 3600 00a1 0000 0000 0000 0059
000000b0: 0000 0032 0073 00d4 0037 0000 0000 0027
000000c0: 0000 00cb 0000 0000 0000 0000 0000 00e8
000000d0: 0000 4100 0081 8dad 8b1f 2500 0000 001b
000000e0: 0000 3900 0000 0093 0000 0000 2400 0000
000000f0: 0000 0000 0000 0054 0000 0000 0000 0000
0 0 0 0 0 0 0 17
0 0 0 0 0 0 0 0
0 0 0 31 0 0 0 -40
0 0 0 0 0 0 0 0
-62 0 0 0 0 0 0 37
51 0 0 0 -40 0 0 0
0 0 0 60 0 0 0 0
-30 0 0 0 0 0 0 -32
0 0 0 35 -74 0 -60 0
0 0 -66 0 -57 0 0 72
0 0 0 -100 53 0 0 0
-48 0 -18 0 0 0 0 0
0 0 0 0 0 -28 0 0
0 0 0 0 0 0 0 0
47 0 0 0 0 0 0 0
0 0 0 0 -50 0 0 -127
0 0 0 -63 0 0 0 0
0 0 0 0 0 0 0 0
0 0 0 0 0 0 0 0
0 0 0 0 0 0 0 0
0 0 73 0 54 0 0 -95
0 0 0 0 0 0 0 89
0 0 0 50 0 115 0 -44
0 55 0 0 0 0 0 39
0 0 0 -53 0 0 0 0
0 0 0 0 0 0 0 -24
0 0 65 0 0 -127 -115 -83
-117 31 37 0 0 0 0 27
0 0 57 0 0 0 0 -109
0 0 0 0 36 0 0 0
0 0 0 0 0 0 0 84
0 0 0 0 0 0 0 0

model/conv2d_2/Conv2D i1 [16, 3, 3, 16]
00000000: 0034 d200 0000 0000 c300 0000 0000 0000
00000010: 001e 2100 0000 3c31 0000 003e 0000 0000
00000020: c430 6400 2900 0000 0000 1f00 0000 0000
00000030: 0000 0000 0000 0000 0000 0000 00b1 c300
00000040: 0000 0000 0000 005a 0000 0000 0000 0000
00000050: 0000 0000 0000 003e 0000 3400 0000 0000
00000060: 0000 b0c2 0000 0000 0000 d200 0000 0000
00000070: 6500 d600 00c3 0000 00c9 e500 0081 0000
00000080: 0000 00a7 0000 0000 0000 0000 0000 bd00
00000090: 0017 0000 0000 e500 0000 0000 dc00 00d9
000000a0: 0000 0000 0000 cc00 0000 0000 0000 00f2
000000b0: e600 0000 0000 3200 0000 0000 0000 003e
000000c0: 3900 0000 00e2 0000 0000 0000 e345 00b3
000000d0: 0000 d600 3a00 0000 0000 0000 00d9 0091
000000e0: dbe2 4bb6 bd24 0000 0000 0000 0000 007f
000000f0: 0000 0046 0000 0000 0000 0000 0000 00fd
0 52 -46 0 0 0 0 0
-61 0 0 0 0 0 0 0
0 30 33 0 0 0 60 49
0 0 0 62 0 0 0 0
-60 48 100 0 41 0 0 0
0 0 31 0 0 0 0 0
0 0 0 0 0 0 0 0
0 0 0 0 0 -79 -61 0
0 0 0 0 0 0 0 90
0 0 0 0 0 0 0 0
0 0 0 0 0 0 0 62
0 0 52 0 0 0 0 0
0 0 -80 -62 0 0 0 0
0 0 -46 0 0 0 0 0
101 0 -42 0 0 -61 0 0
0 -55 -27 0 0 -127 0 0
0 0 0 -89 0 0 0 0
0 0 0 0 0 0 -67 0
0 23 0 0 0 0 -27 0
0 0 0 0 -36 0 0 -39
0 0 0 0 0 0 -52 0
0 0 0 0 0 0 0 -14
-26 0 0 0 0 0 50 0
0 0 0 0 0 0 0 62
57 0 0 0 0 -30 0 0
0 0 0 0 -29 69 0 -77
0 0 -42 0 58 0 0 0
0 0 0 0 0 -39 0 -111
-37 -30 75 -74 -67 36 0 0
0 0 0 0 0 0 0 127
0 0 0 70 0 0 0 0
0 0 0 0 0 0 0 -3

model/conv2d_3/Conv2D i1 [32, 3, 3, 16]
00000000: 0000 0000 0081 00d6 d500 0000 4900 0000
00000010: 0000 0000 00b9 00cd b331 0000 0000 2423
00000020: 0000 0000 0000 0000 0000 0000 0000 0000
00000030: 0000 0000 00b9 00e2 00ed 9700 0000 0000
00000040: 0000 00a8 009e 4bbc 0000 0000 0000 0000
00000050: d600 0000 0000 0000 0000 0000 0000 0020
00000060: 0000 0000 18e1 0000 0000 002f 002d 0000
00000070: 0034 0000 3a9b 00d3 0000 0046 0045 1165
00000080: 0000 0000 00e1 0000 dc00 0000 0000 1b21
00000090: 0000 0000 3400 0000 0000 f300 0000 0000
000000a0: 0000 1900 b600 0000 0000 0000 0000 e400
000000b0: 0000 0000 0000 0000 0000 0000 0000 0000
000000c0: 0000 d000 5c00 0000 0000 e300 0000 0000
000000d0: 0000 1700 8100 0000 0000 1d00 0000 0000
000000e0: 0000 0000 2700 0000 0000 0000 ef00 0000
000000f0: 0000 0000 3700 0000 0000 0000 0000 0000
0 0 0 0 0 -127 0 -42
-43 0 0 0 73 0 0 0
0 0 0 0 0 -71 0 -51
-77 49 0 0 0 0 36 35
0 0 0 0 0 0 0 0
0 0 0 0 0 0 0 0
0 0 0 0 0 -71 0 -30
0 -19 -105 0 0 0 0 0
0 0 0 -88 0 -98 75 -68
0 0 0 0 0 0 0 0
-42 0 0 0 0 0 0 0
0 0 0 0 0 0 0 32
0 0 0 0 24 -31 0 0
0 0 0 47 0 45 0 0
0 52 0 0 58 -101 0 -45
0 0 0 70 0 69 17 101
0 0 0 0 0 -31 0 0
-36 0 0 0 0 0 27 33
0 0 0 0 52 0 0 0
0 0 -13 0 0 0 0 0
0 0 25 0 -74 0 0 0
0 0 0 0 0 0 -28 0
0 0 0 0 0 0 0 0
0 0 0 0 0 0 0 0
0 0 -48 0 92 0 0 0
0 0 -29 0 0 0 0 0
0 0 23 0 -127 0 0 0
0 0 29 0 0 0 0 0
0 0 0 0 39 0 0 0
0 0 0 0 -17 0 0 0
0 0 0 0 55 0 0 0
0 0 0 0 0 0 0 0

model/conv2d_4/Conv2D i1 [32, 3, 3, 32]
00000000: c700 0000 ecd2 0000 0000 0000 00c6 0000
00000010: 0000 0000 d0bc d200 e100 5300 0000 00df
00000020: 0000 1f00 c300 0000 0000 0000 0000 0000
00000030: 00c5 0000 0000 0000 dc00 3800 0000 0000
00000040: 0000 004b 0000 0000 c700 0000 0000 aab7
00000050: 0031 0000 0000 0000 0000 0000 0800 0016
00000060: b3d9 12d6 00bd 0000 0000 0000 00ce 5a00
00000070: 00be 0000 0000 c100 c33b 00cc 0040 00c9
00000080: 0000 40d7 ad00 0000 0000 0000 0000 00be
00000090: 0000 0000 0000 da00 0000 0000 003f 0000
000000a0: 4700 0000 ac00 00c1 0033 0000 0041 8a00
000000b0: 0000 0000 0000 0000 4200 0000 0031 0000
000000c0: 0000 00cd 00ac 0000 0000 0000 0000 6100
000000d0: 0000 0000 0000 0000 0000 0000 0000 bb00
000000e0: 00dd 0000 0000 0000 0000 0000 0000 00de
000000f0: 0000 0000 0000 ce00 0000 00e9 0000 0000
-57 0 0 0 -20 -46 0 0
0 0 0 0 0 -58 0 0
0 0 0 0 -48 -68 -46 0
-31 0 83 0 0 0 0 -33
0 0 31 0 -61 0 0 0
0 0 0 0 0 0 0 0
0 -59 0 0 0 0 0 0
-36 0 56 0 0 0 0 0
0 0 0 75 0 0 0 0
-57 0 0 0 0 0 -86 -73
0 49 0 0 0 0 0 0
0 0 0 0 8 0 0 22
-77 -39 18 -42 0 -67 0 0
0 0 0 0 0 -50 90 0
0 -66 0 0 0 0 -63 0
-61 59 0 -52 0 64 0 -55
0 0 64 -41 -83 0 0 0
0 0 0 0 0 0 0 -66
0 0 0 0 0 0 -38 0
0 0 0 0 0 63 0 0
71 0 0 0 -84 0 0 -63
0 51 0 0 0 65 -118 0
0 0 0 0 0 0 0 0
66 0 0 0 0 49 0 0
0 0 0 -51 0 -84 0 0
0 0 0 0 0 0 97 0
0 0 0 0 0 0 0 0
0 0 0 0 0 0 -69 0
0 -35 0 0 0 0 0 0
0 0 0 0 0 0 0 -34
0 0 0 0 0 0 -50 0
0 0 0 -23 0 0 0 0

model/conv2d_5/Conv2D i1 [32, 1, 1, 16]
00000000: 0000 0000 0000 0042 0000 0000 0000 8100
00000010: 007f 0000 0000 0000 0000 0000 0000 0000
00000020: 7f00 0000 0000 0000 0000 0000 0000 0000
00000030: 7f00 0000 0000 0000 6400 0000 6e00 0000
00000040: 00c3 0000 0070 0042 0000 0081 0000 0098
00000050: 0000 0000 0000 0000 0000 0000 0000 0081
00000060: 0000 2a00 0059 0000 0000 3c81 6c00 00de
00000070: 0000 0000 005b 0000 0000 007f 0000 0000
00000080: 0000 0000 c700 0000 0000 0000 8100 0000
00000090: 0000 2100 0000 0081 0073 003f 0000 0000
000000a0: 0000 0000 0000 0000 00dd 00a7 00b2 8100
000000b0: 8100 00cd 0000 2100 0041 f200 ab00 0093
000000c0: 0000 0000 0000 0000 0081 0000 0000 0000
000000d0: 0000 0000 6200 6500 007f 0000 ce00 0000
000000e0: 0000 0036 0000 b500 8133 6b00 0000 0000
000000f0: 3400 0047 00c5 3600 0000 0000 7f00 0000
0 0 0 0 0 0 0 66
0 0 0 0 0 0 -127 0
0 127 0 0 0 0 0 0
0 0 0 0 0 0 0 0
127 0 0 0 0 0 0 0
0 0 0 0 0 0 0 0
127 0 0 0 0 0 0 0
100 0 0 0 110 0 0 0
0 -61 0 0 0 112 0 66
0 0 0 -127 0 0 0 -104
0 0 0 0 0 0 0 0
0 0 0 0 0 0 0 -127
0 0 42 0 0 89 0 0
0 0 60 -127 108 0 0 -34
0 0 0 0 0 91 0 0
0 0 0 127 0 0 0 0
0 0 0 0 -57 0 0 0
0 0 0 0 -127 0 0 0
0 0 33 0 0 0 0 -127
0 115 0 63 0 0 0 0
0 0 0 0 0 0 0 0
0 -35 0 -89 0 -78 -127 0
-127 0 0 -51 0 0 33 0
0 65 -14 0 -85 0 0 -109
0 0 0 0 0 0 0 0
0 -127 0 0 0 0 0 0
0 0 0 0 98 0 101 0
0 127 0 0 -50 0 0 0
0 0 0 54 0 0 -75 0
-127 51 107 0 0 0 0 0
52 0 0 71 0 -59 54 0
0 0 0 0 127 0 0 0

model/conv2d_6/Conv2D i1 [64, 3, 3, 32]
00000000: 0000 1a00 0000 0000 0000 b800 0000 0000
00000010: 0000 0000 0000 0000 00af 0000 0000 008c
00000020: 0000 0000 0000 b900 0000 cd00 0000 00aa
00000030: 0000 0000 0000 d700 0000 0000 0000 0000
00000040: 0000 da00 0000 9a00 0000 0000 0000 0000
00000050: 0000 0000 00f4 c300 0000 0000 0000 0000
00000060: 41b9 0000 0000 0000 4d00 0000 0000 0000
00000070: c900 0000 0000 c500 00d0 0000 0000 00d2
00000080: 00c8 0000 0000 e24c 0000 00f9 0000 0081
00000090: 0000 0000 ab00 0000 00c1 0000 0000 0000
000000a0: 0000 0000 0000 c03b 0000 0000 0000 0000
000000b0: 0000 0000 0000 0000 0000 0000 0000 004b
000000c0: 00d8 0000 0000 0000 0033 0000 0000 0000
000000d0: 0046 b400 0000 8d00 00c6 0000 0000 0000
000000e0: 0000 0000 0000 0000 3d58 0013 0000 0000
000000f0: 0000 9c34 c500 db00 00c4 0000 0000 0000
0 0 26 0 0 0 0 0
0 0 -72 0 0 0 0 0
0 0 0 0 0 0 0 0
0 -81 0 0 0 0 0 -116
0 0 0 0 0 0 -71 0
0 0 -51 0 0 0 0 -86
0 0 0 0 0 0 -41 0
0 0 0 0 0 0 0 0
0 0 -38 0 0 0 -102 0
0 0 0 0 0 0 0 0
0 0 0 0 0 -12 -61 0
0 0 0 0 0 0 0 0
65 -71 0 0 0 0 0 0
77 0 0 0 0 0 0 0
-55 0 0 0 0 0 -59 0
0 -48 0 0 0 0 0 -46
0 -56 0 0 0 0 -30 76
0 0 0 -7 0 0 0 -127
0 0 0 0 -85 0 0 0
0 -63 0 0 0 0 0 0
0 0 0 0 0 0 -64 59
0 0 0 0 0 0 0 0
0 0 0 0 0 0 0 0
0 0 0 0 0 0 0 75
0 -40 0 0 0 0 0 0
0 51 0 0 0 0 0 0
0 70 -76 0 0 0 -115 0
0 -58 0 0 0 0 0 0
0 0 0 0 0 0 0 0
61 88 0 19 0 0 0 0
0 0 -100 52 -59 0 -37 0
0 -60 0 0 0 0 0 0

model/conv2d_7/Conv2D i1 [64, 3, 3, 64]
00000000: 0000 0000 0000 0000 0000 bb00 0000 3100
00000010: 0049 0000 0000 0000 0000 0000 0000 00c6
00000020: be00 0034 0085 0000 0000 0000 0075 2c00
00000030: 2900 0000 0045 2300 00d9 0000 00a7 0000
00000040: 0000 00ab 0000 0000 0000 0000 00f5 00bd
00000050: 0000 0000 0000 36aa 0000 0000 0000 0000
00000060: 0000 005d 0000 0000 0000 003f 0000 0000
00000070: 5000 0000 0000 0000 0000 0000 cb90 0000
00000080: 0000 0000 c200 0000 0000 0000 5c00 adbe
00000090: 0000 00b3 0000 6000 4700 0000 0000 0000
000000a0: 0000 0053 d900 0000 0000 0000 0024 0000
000000b0: 0000 0000 0000 9b00 0025 0000 0000 3600
000000c0: 0000 0000 b250 3800 0000 d400 0000 0000
000000d0: 0000 0000 0000 0000 0000 dd00 001d c700
000000e0: a500 0000 0000 0000 0000 0000 0000 0000
000000f0: 7400 0000 004d 3e00 0000 0000 0000 00dd
0 0 0 0 0 0 0 0
0 0 -69 0 0 0 49 0
0 73 0 0 0 0 0 0
0 0 0 0 0 0 0 -58
-66 0 0 52 0 -123 0 0
0 0 0 0 0 117 44 0
41 0 0 0 0 69 35 0
0 -39 0 0 0 -89 0 0
0 0 0 -85 0 0 0 0
0 0 0 0 0 -11 0 -67
0 0 0 0 0 0 54 -86
0 0 0 0 0 0 0 0
0 0 0 93 0 0 0 0
0 0 0 63 0 0 0 0
80 0 0 0 0 0 0 0
0 0 0 0 -53 -112 0 0
0 0 0 0 -62 0 0 0
0 0 0 0 92 0 -83 -66
0 0 0 -77 0 0 96 0
71 0 0 0 0 0 0 0
0 0 0 83 -39 0 0 0
0 0 0 0 0 36 0 0
0 0 0 0 0 0 -101 0
0 37 0 0 0 0 54 0
0 0 0 0 -78 80 56 0
0 0 -44 0 0 0 0 0
0 0 0 0 0 0 0 0
0 0 -35 0 0 29 -57 0
-91 0 0 0 0 0 0 0
0 0 0 0 0 0 0 0
116 0 0 0 0 77 62 0
0 0 0 0 0 0 0 -35

model/conv2d_8/Conv2D i1 [64, 1, 1, 32]
00000000: 0000 0000 0000 c200 cf00 0000 0000 0000
00000010: 0000 c200 0000 0000 0081 0000 be00 00c8
00000020: 0000 0000 0000 8100 0000 0000 0000 0000
00000030: c600 0000 0000 0000 0000 0000 a800 0000
00000040: 2600 0000 0000 0000 da00 0000 0032 0000
00000050: 0000 a0af 0000 6300 007f 0000 0000 00b9
00000060: 5100 0000 7f00 0000 49a7 0000 0000 0000
00000070: 0000 0000 adb7 0000 c99b 0000 4d00 bf87
00000080: 0000 0000 3100 0094 0000 0000 0000 0000
00000090: 8100 0000 0000 0000 00a2 0000 0000 0000
000000a0: 0000 b400 0000 8100 0000 0000 0000 0081
000000b0: 0000 0000 0000 0000 0000 0000 a100 d0ac
000000c0: df00 0000 0000 818d 0000 00ad 0000 d0a7
000000d0: cb00 3e00 00d2 00cb 24ea 0000 c000 0000
000000e0: cc00 b200 0000 0000 0000 0000 3700 0000
000000f0: 0000 0000 c200 0000 0000 0000 0000 0081
0 0 0 0 0 0 -62 0
-49 0 0 0 0 0 0 0
0 0 -62 0 0 0 0 0
0 -127 0 0 -66 0 0 -56
0 0 0 0 0 0 -127 0
0 0 0 0 0 0 0 0
-58 0 0 0 0 0 0 0
0 0 0 0 -88 0 0 0
38 0 0 0 0 0 0 0
-38 0 0 0 0 50 0 0
0 0 -96 -81 0 0 99 0
0 127 0 0 0 0 0 -71
81 0 0 0 127 0 0 0
73 -89 0 0 0 0 0 0
0 0 0 0 -83 -73 0 0
-55 -101 0 0 77 0 -65 -121
0 0 0 0 49 0 0 -108
0 0 0 0 0 0 0 0
-127 0 0 0 0 0 0 0
0 -94 0 0 0 0 0 0
0 0 -76 0 0 0 -127 0
0 0 0 0 0 0 0 -127
0 0 0 0 0 0 0 0
0 0 0 0 -95 0 -48 -84
-33 0 0 0 0 0 -127 -115
0 0 0 -83 0 0 -48 -89
-53 0 62 0 0 -46 0 -53
36 -22 0 0 -64 0 0 0
-52 0 -78 0 0 0 0 0
0 0 0 0 55 0 0 0
0 0 0 0 -62 0 0 0
0 0 0 0 0 0 0 -127
